Saved_Models/simple_nn_trained_model.npz (npz, 61745 bytes, 4 tensors)

W1 f8 [10, 784]
-0.49388737140621264 0.10213895624189273 -0.19875239653911714 0.07181971261384157 -0.10793884622269134 -0.343156997353797 -0.08272559263162249 0.46772339112808237
-0.3037792126392198 -0.17249265047129303 0.26707513232019064 0.27140742921069727 -0.3728370618765705 -0.20820017285287307 0.038758619852988827 -0.17386338402081974
0.32070767245007603 0.03824989557049585 0.18341205739015154 0.3969613599215637 0.2437954589645367 -0.17621234188005896 -0.24072488423332206 0.2130882315194026
0.31251522342090776 0.43407591032789905 -0.4317061453726173 0.3792727362395224 0.25675980096240625 0.2743947258200121 0.18702340346775614 -0.15320188294654313
-0.3607423616340923 0.45950382753392655 0.009226117190900465 0.3549957544950156 0.08719485107905196 -0.4091815645503443 -0.14324912939381346 0.17447560808585658
-0.3937684724975037 0.3049912224620955 -0.29364654219385555 0.27263736865618454 0.47661365304926095 -0.08934421367266805 0.4191584553701175 -0.028309055270556247
-0.4073465365423584 0.04732122984242456 0.3174549299616985 -0.47020759549863167 -0.2364287885996802 0.10781563928921989 -0.08663680232577498 -0.3452779052221425
0.0018882158598610976 0.1892901209592801 0.49767563952910776 0.038267700371182406 0.11386944462266435 0.15428235110693736 0.24787127114657226 0.1370525301405952
-0.45150789973992833 0.1251554473686086 -0.1182056441689833 -0.4766855882953624 -0.1495734854357641 0.14825673733816472 -0.13922499401934735 -0.17804498431436658
0.10458149048194514 -0.39499312648456747 0.21810427296457344 0.11536393542249859 -0.4023577488919514 0.2317002477757566 0.36171091487965135 -0.2843921521647306
-0.3978671549821049 0.1981845896959802 -0.37374572966002906 0.41642102811134096 -0.024701774787930675 0.04502859027897743 0.325292782842525 0.3029538198453134
-0.2303464554572563 0.28243977825310973 0.34198288850777164 0.28859354964676115 0.05947108227731943 0.352369235596081 0.07178107897590799 -0.24026784278563723
-0.38620243355481265 0.4447231960698038 0.17035440616527173 -0.10396877046612372 0.332201348188565 -0.4978952725786565 -0.19929017203257066 0.09132544197331002
0.14380980837102708 -0.4410615379747535 -0.479994369114514 0.09497736732993066 0.08964772081015566 0.29976536712682383 -0.0037136051663152975 0.16631599140829967
-0.4425849494462837 0.2808226611335276 -0.2527834192204334 -0.4732435116415143 -0.18890732868882837 -0.28927801329792585 -0.0005108175214298621 0.011579635543677117
0.0010287998275888249 -0.4575927905391358 0.08611676861617802 -0.00927594101652932 0.11447849953276848 -0.3330708511042935 -0.4246027058592437 -0.2858847997267143
-0.058387149006250576 0.1470748346276562 0.05372390241240446 -0.43566079315817174 0.29996269279615767 0.2537116106626668 -0.328994519716667 -0.2932981446462756
0.3275493551819928 -0.4033817841149079 -0.339264807075779 -0.3773166468347072 -0.31017576982618744 0.332161858788095 -0.2321390909191459 0.47321578284984417
0.21094514189886887 -0.46687221573767923 -0.2204912968163854 0.2395711437664352 -0.033928553918659704 0.07241324882226978 0.14518591697425573 0.3507448204481768
-0.21082206665972175 0.5118845349277913 -0.33474980435192403 0.17457610902549148 -0.3980606938053261 -0.04667693050240465 -0.17042489242999426 -0.20076478982328158
0.3280210088902674 0.39341703452170107 0.23381501279211248 -0.20249778144793593 0.38180161645432653 -0.30911318827922163 -0.2052456303640454 -0.23500239099207942
-0.2775984355033696 0.34483860450848747 -0.23767047848289283 -0.07147815357080113 -0.27696201899598283 -0.4075465051352483 -0.40335973115345297 0.25543179399647964
0.4041627927760458 -0.2653073070043914 0.3055978551829066 -0.4746796961870705 0.05983601039040178 0.2728917960206718 -0.307528009504566 -0.4116571099567789
-0.19376912679733932 0.06832859445776623 0.01947984897195287 0.45219912073791696 0.24322279166434577 -0.32046647685633883 -0.14055236824227807 -0.213221943392479
0.04254115818184782 -0.03184057031672628 0.4809775117863318 0.4639754846601655 -0.014999751628536728 0.36241777092684874 -0.1670845281424886 0.26030040711916597
-0.3034459076081794 0.22320527027881587 0.029321409370215896 -0.2234189733609224 -0.44028264248955645 0.322965821110378 0.17187836342460092 -0.28710815768546044
-0.14040849987972898 -0.31377049814617897 -0.05037560696278694 -0.3836539650350413 -0.5402548037418943 0.3893416326311639 0.05788837873369106 0.009391597383095463
-0.2794742398555847 -0.01603785530118155 -0.13256376461888453 -0.029921888559690534 -0.26658475744835014 -0.26658745011012885 0.02022282050986091 0.03969770088449161
-0.30132467581556655 0.46162717525921154 0.06035313365731681 -0.019311030310495574 -0.295630328545761 -0.23809519189978823 0.3355042070365896 -0.10339875939204762
0.15752333049437656 -0.035946281088880185 0.26872436571894776 -0.1812881530947554 0.36156039125778927 -0.39861650539172894 -0.18323632462374603 -0.041229737843313526
0.17247767905574873 0.14827314159571875 -0.2875548120940799 -0.02347055655701402 -0.46228168489965543 -0.05221491148804478 0.29724001623353896 -0.22739322245235824
-0.43484419869893287 -0.47041754033474725 -0.09329639472615064 0.4241754695900402 0.48255614547251396 0.09603268196945174 -0.19327430379825974 -0.330034586495022
00000000: b436 06c7 d99b dfbf 78dd b454 c725 ba3f
00000010: 888d 91f1 b770 c9bf 1073 e2d4 c662 b23f
00000020: 2093 7e56 e1a1 bbbf aacc 41c4 48f6 d5bf
00000030: 2821 e522 812d b5bf 8209 1e17 2eef dd3f
00000040: 745d df5d 1e71 d3bf 448b 493a 3d14 c6bf
00000050: 42f7 b84b c217 d13f 027d 1644 bd5e d13f
00000060: 46c8 dffa 8fdc d7bf 805a b6a2 4da6 cabf
00000070: 66d2 6979 2bd8 a33f 0ab0 2bc6 2741 c6bf
00000080: 76f5 2f79 7986 d43f b0f4 1985 7d95 a33f
00000090: 3465 17da 0b7a c73f 1ee2 a89e d067 d93f
000000a0: 543f 9589 b034 cf3f e061 c342 208e c6bf
000000b0: d8c8 8eb0 12d0 cebf 5ce7 c4a4 7946 cb3f
000000c0: 5e13 06da 3f00 d43f 8cbe b553 e6c7 db3f
000000d0: 22e3 f6cf 12a1 dbbf 9671 9a27 0146 d83f
000000e0: 7ee7 03a9 c06e d03f b0e0 65e5 ae8f d13f
000000f0: 2485 bd04 62f0 c73f 7073 788a 1e9c c3bf
00000100: cb03 6021 6716 d7bf 5148 e9bd 8268 dd3f
00000110: eef3 d47c 24e5 823f 9198 f11c 40b8 d63f
00000120: 459d c3d9 6652 b63f 7dab 77df 0730 dabf
00000130: b2a4 f6ca fc55 c2bf 03d8 567b 3755 c63f
00000140: 5ca6 e4ad 8033 d9bf 35ac 82e7 f984 d33f
00000150: 0a97 d3dd 1acb d2bf 85ee 8201 e472 d13f
00000160: 5a1d 2b8d d680 de3f 1d9a cf2b 43df b6bf
00000170: 9704 6afc 7dd3 da3f f951 458a 0cfd 9cbf
00000180: aea6 2535 f711 dabf 1bd0 28fd 7c3a a83f
00000190: 01ed 887b 2e51 d43f bad5 3f99 e117 debf
000001a0: cc2b 6f6d 4c43 cebf a899 be44 ce99 bb3f
000001b0: 3885 9e58 d42d b6bf aa78 bd7f 0819 d6bf
000001c0: 00c6 6a57 c0ef 5e3f 50ed 7c9f a83a c83f
000001d0: 1cc7 f2ec ead9 df3f dcb9 2cf3 d297 a33f
000001e0: c803 ab44 8c26 bd3f 3959 2d2a 86bf c33f
000001f0: 10a3 98ed 3eba cf3f 42da 64f3 ef8a c13f
00000200: 6231 d163 81e5 dcbf 6ba5 aefc 1705 c03f
00000210: aa8c e89f b942 bebf 9fff 0c45 0482 debf
00000220: accd 2556 3925 c3bf e1b8 23a7 13fa c23f
00000230: 82a8 0ce6 1fd2 c1bf b96b 6c94 2dca c6bf
00000240: 330b 6341 dac5 ba3f 3558 1940 9147 d9bf
00000250: ef16 c03f d7ea cb3f 6a09 c7a9 7d88 bd3f
00000260: 801e 32b7 3ac0 d9bf 2803 568d 5aa8 cd3f
00000270: fcea 8089 4526 d73f 3957 3224 7b33 d2bf
00000280: bc3e b3cc a776 d9bf 795f a8d5 1c5e c93f
00000290: f434 7a35 73eb d7bf c8b6 4662 a4a6 da3f
000002a0: a022 780b 6c4b 99bf b031 44c5 fc0d a73f
000002b0: 0dbe fbd1 98d1 d43f f7c4 1b6b 9863 d33f
000002c0: b01e 781e fe7b cdbf 3af1 ab4a 7e13 d23f
000002d0: f9ad 7b32 0ce3 d53f e970 6414 5178 d23f
000002e0: fdab e062 fe72 ae3f a41b c0b1 378d d63f
000002f0: 7651 acaa 3e60 b23f 66bb 85bf 18c1 cebf
00000300: e439 7069 8ab7 d8bf 221d b947 5876 dc3f
00000310: bfcb 9a55 2cce c53f b713 f584 b29d babf
00000320: 370c 8a71 c942 d53f c4bb 2322 84dd dfbf
00000330: 3aa5 a521 5782 c9bf ce6f 91aa 1a61 b73f
00000340: 6017 e61b 5c68 c23f 7700 482c 5a3a dcbf
00000350: 761a 674d 3ab8 debf a7cf 8ace 6f50 b83f
00000360: f561 0a2d 27f3 b63f ff1e 1214 5b2f d33f
00000370: 72a5 aa97 fe6b 6ebf 6842 f3a7 d749 c53f
00000380: e4b5 e4d2 4f53 dcbf 08d4 629c fff8 d13f
00000390: df75 a181 9a2d d0bf 13d9 6227 9f49 debf
000003a0: 1abc 5887 1d2e c8bf a140 a4ed 8783 d2bf
000003b0: c7ee 3d46 0cbd 40bf 3573 ad5f 10b7 873f
000003c0: 739f 4567 19db 503f d60f 9045 3349 ddbf
000003d0: a9fb d7a0 bf0b b63f 13e8 71ba 43ff 82bf
000003e0: daa0 9683 764e bd3f d99a 2f67 0851 d5bf
000003f0: 0959 ddd3 b02c dbbf defb 4fc2 ef4b d2bf
00000400: f71f fa9e ebe4 adbf 8e2b 6522 59d3 c23f
00000410: 34e2 bf07 b381 ab3f 94e1 b0ce dde1 dbbf
00000420: 0918 e5b8 9632 d33f 4a58 9a9f cf3c d03f
00000430: 93c3 af07 3f0e d5bf 43ed ce94 65c5 d2bf
00000440: 7448 1592 91f6 d43f a4d7 a4d4 01d1 d9bf
00000450: 06c0 c4bc 83b6 d5bf 820d 99b8 f425 d8bf
00000460: fa90 da78 ebd9 d3bf d04c 1ed0 2342 d53f
00000470: b979 cfd5 bbb6 cdbf afa1 d2d9 2a49 de3f
00000480: 1255 da1a 4000 cb3f e847 8000 3ce1 ddbf
00000490: 3683 700e 0f39 ccbf 4965 c569 44aa ce3f
000004a0: f461 f65a 155f a1bf 531f 7db7 ac89 b23f
000004b0: ef41 9fbe 7395 c23f 723e 4467 9a72 d63f
000004c0: c610 caac 37fc cabf 21fa 1aad 5b61 e03f
000004d0: 9e2b 8271 8a6c d5bf 94b5 768b 8258 c63f
000004e0: 6fe2 6d8f d379 d9bf 8492 f8e3 09e6 a7bf
000004f0: 58a0 b49d 7bd0 c5bf f759 3d1f a9b2 c9bf
00000500: 7a6a 65d4 4bfe d43f ca70 3da4 be2d d93f
00000510: ccc2 a07c a6ed cd3f a36c 6a82 72eb c9bf
00000520: 18cd 0e0c 706f d83f a2fa 9aae 82c8 d3bf
00000530: cbbd 0723 7d45 cabf 047a e5ef 8e14 cebf
00000540: 6018 7a3a 2cc4 d1bf 68c8 30f0 d511 d63f
00000550: 5d83 277a fc6b cebf f10d f76b 644c b2bf
00000560: a299 74e7 beb9 d1bf 51eb c9ef 3d15 dabf
00000570: a9f4 7455 a5d0 d9bf 0cb4 6498 fe58 d03f
00000580: cbeb 4e9e cddd d93f fc50 be7f cbfa d0bf
00000590: c440 6f4e ea8e d33f 3cb7 ccf2 2661 debf
000005a0: d3f1 7f57 d3a2 ae3f ec59 d026 0f77 d13f
000005b0: 0745 dbf5 89ae d3bf 1389 1b10 9758 dabf
000005c0: 9ed6 483f 6dcd c8bf 9ce7 9396 fb7d b13f
000005d0: 1fee 0f89 86f2 933f 135b b694 d4f0 dc3f
000005e0: 3b8b eba7 ec21 cf3f fdfc 63d3 8582 d4bf
000005f0: 62eb 7cb8 9efd c1bf 6b83 d44c db4a cbbf
00000600: e5ff 3f66 f4c7 a53f 1285 6440 684d a0bf
00000610: c1f5 cee6 55c8 de3f dbb6 303b c6b1 dd3f
00000620: 00a0 8a95 30b8 8ebf a7ae 674e da31 d73f
00000630: f610 059c 0663 c5bf 6196 ed09 c3a8 d03f
00000640: 0b0f 5262 a86b d3bf b038 1284 fd91 cc3f
00000650: 8554 4579 6e06 9e3f 270e f22f fe98 ccbf
00000660: 7f4d 9f3f 972d dcbf 6345 d9d5 78ab d43f
00000670: 9b3a e636 1c00 c63f 9520 ebe4 fa5f d2bf
00000680: 6e2c 88dd e7f8 c1bf aa32 ffda d014 d4bf
00000690: 3ab7 d7e0 d4ca a9bf 4599 335c c98d d8bf
000006a0: b781 3271 c449 e1bf 69d0 c72a f9ea d83f
000006b0: a696 f5aa 8ba3 ad3f 3ad5 f0dc e63b 833f
000006c0: c044 10ec e7e2 d1bf caf3 1040 3a6c 90bf
000006d0: b41c d674 d9f7 c0bf f396 31f3 d7a3 9ebf
000006e0: 8f93 b683 b90f d1bf 6ccf efce c40f d1bf
000006f0: 8113 e482 4ab5 943f baf1 0cce 4153 a43f
00000700: 24c3 064b e748 d3bf 1fb9 2bb5 4c8b dd3f
00000710: b7e0 891e 9be6 ae3f 0ee6 8a4e 45c6 93bf
00000720: 6ad3 3378 9beb d2bf 08b0 453b e779 cebf
00000730: cb1f 39a3 e678 d53f 542b 0952 5778 babf
00000740: ce48 6a78 b929 c43f 7d0e 610b 8d67 a2bf
00000750: a8ad 99ae c732 d13f 0fdc 5840 7334 c7bf
00000760: 7acb fe31 ce23 d73f ff68 93cd ee82 d9bf
00000770: 8f5f d9b2 4974 c7bf 41c2 516f 101c a5bf
00000780: 70ce 6aa3 bf13 c63f 5eaf 0343 9dfa c23f
00000790: 8d18 704c 4c67 d2bf 9f3e 5363 aa08 98bf
000007a0: 55c3 8beb 0596 ddbf bdcc 68b2 e9bb aabf
000007b0: 9946 32fd fa05 d33f 47e9 e19a 381b cdbf
000007c0: 801a 11c3 7cd4 dbbf c4f5 cc2b 521b debf
000007d0: 6cfb 2ec4 45e2 b7bf 09e6 69de b025 db3f
000007e0: f372 d22b 33e2 de3f 43ed 670c 9995 b83f
000007f0: b53f fc5e 36bd c8bf 53e1 e262 491f d5bf

b1 f8 [10, 1]
0.09030035371751861 0.6899931848518522 0.5896311404081256 0.5614367496145513 0.44617939600232226 0.3205403202443013 0.7212354301265808 0.14062085843445754
0.27518304652024594 0.8164431157836151
00000000: 8db2 088a ec1d b73f cfd9 6c96 6c14 e63f
00000010: d631 1820 42de e23f c7be cb33 4af7 e13f
00000020: 0ea8 7e06 348e dc3f bbe9 1f8c bb83 d43f
00000030: 6986 2353 5c14 e73f b243 0e42 ddff c13f
00000040: 66f5 4d5a 999c d13f 0fb8 2a50 4d20 ea3f

W2 f8 [10, 10]
-0.0994645726936491 -0.5756766253339436 0.9149169998548922 0.32713219497805146 -0.5061370806257871 -0.47684144440443926 0.03421129884782398 0.13177020939931058
-0.43310253399349075 -0.30785296572051785 0.035541191393038365 0.6090528801405145 -0.48121617535154926 0.09916957062417439 0.9735443425394289 0.04788716147077968
-0.46150665144501746 0.17381105027988827 0.4055971531991566 -0.5351595303518368 0.06596124026200355 0.14844949434337032 0.3667645504121607 -0.04845396493040749
0.043810071251074556 0.44181047212128344 -0.10819249138243299 0.5318438270823503 0.23553174187709086 -0.47238515741934894 -0.04030930052625248 -0.14922529530739
-0.16764213944796963 -0.05960785870073818 -0.1260614105113163 -0.19861148064782508 0.5268059406856841 0.663371280229666 0.2501348507276506 -0.1717452777419515
0.8289556165618954 0.06386122665651091 0.04375969542468512 0.041239860671140535 0.20446239173866113 0.35607554923897033 0.11178512973787921 -0.586102292556088
0.18650677936046 0.32874740257414026 -0.19349527504823838 -0.19826062670856767 0.23639425644351839 -0.25887199913726505 -0.07028252418525315 0.22744141150272637
0.7320015498482035 -0.23159386888095 0.22382179625195905 -0.014241233021213277 0.018007990736113998 0.7673584753754781 0.49789820866831175 0.32885170041593054
0.003654275966885685 0.2623287664484249 -0.06109956410682459 -0.47232873895960154 -0.25488436993848473 -0.4788513485405943 -0.47634677754273996 -0.4395276305455853
-0.209366801755291 -0.3944210424181267 0.08621828640471452 0.24084820854020358 -0.8231495307255481 0.3209362049453156 -0.05881771476687343 0.8672965206789767
0.14939474974847392 -0.028362817930111993 0.2215137882667344 0.16310334140529356 0.5937016611128139 -0.08748103683475937 0.29456992536764764 -0.02906782260828421
0.24776303339529526 -0.09693939893466266 0.4021978818069418 0.0590619192256881 -0.2539848622012589 -0.29491553389156 0.21072427078344774 -0.3456362242514425
-0.28279443092676176 -0.1617499730332742 -0.04859807030334021 0.7630037679883589
00000000: 3b70 d49e 8276 b9bf 9a30 dc62 f16b e2bf
00000010: 61cc 1d04 0047 ed3f 3490 b9df bbef d43f
00000020: db94 1264 4632 e0bf c70b 46fa 9184 debf
00000030: 1801 69b3 2484 a13f 9b82 faa1 d8dd c03f
00000040: fa45 d4b0 f3b7 dbbf 49c2 efec dcb3 d3bf
00000050: e250 637d 7432 a23f a99e 3777 5c7d e33f
00000060: 123b dced 3ecc debf 3ed5 964e 2d63 b93f
00000070: 9534 0d77 4627 ef3f 449e d480 aa84 a83f
00000080: c8f0 b531 5389 ddbf 1b59 51c4 703f c63f
00000090: 3fd4 15c3 4df5 d93f 9c1f 20e1 0620 e1bf
000000a0: 6f99 baf9 d5e2 b03f 6900 a89d 6400 c33f
000000b0: 4a8d 5605 1279 d73f c8aa 7945 f5ce a8bf
000000c0: c880 840e 466e a63f 8ca3 326e 9f46 dc3f
000000d0: 2d0a 29cc 80b2 bbbf d7bd 7c58 dd04 e13f
000000e0: 3219 4474 e725 ce3f b4d7 8ef4 8e3b debf
000000f0: 8043 f8ae 6ba3 a4bf 2f64 8a81 d019 c3bf
00000100: e624 2e31 4c75 c5bf b594 68d7 eb84 aebf
00000110: 9a84 b7c1 c722 c0bf bc0b ffda 196c c9bf
00000120: 45ac d221 98db e03f 6925 3668 563a e53f
00000130: 38c4 dd9a 3502 d03f 7972 92cf bffb c5bf
00000140: e000 dfed cd86 ea3f 55df f897 3559 b03f
00000150: 4ac1 76b9 ab67 a63f f68f bf19 641d a53f
00000160: 55c6 e3da d22b ca3f 4ebe b819 f1c9 d63f
00000170: 363f 6744 f39d bc3f df72 5498 59c1 e2bf
00000180: 78f0 ea42 74df c73f 32db ac8b 320a d53f
00000190: 70a0 2103 74c4 c8bf 131d e6ad 9a60 c9bf
000001a0: 178e 31c0 2a42 ce3f a942 89dc 5b91 d0bf
000001b0: 3f22 db16 09fe b1bf 5184 14d8 cc1c cd3f
000001c0: e604 a783 8e6c e73f 0f1e 662e dea4 cdbf
000001d0: af5e 844f 31a6 cc3f 4288 a5f0 812a 8dbf
000001e0: 96f5 1ccd af70 923f a679 815c 338e e83f
000001f0: 99e9 bd72 90dd df3f 6b4e a100 e80b d53f
00000200: a92e 9678 92ef 6d3f 618b 2c98 fec9 d03f
00000210: 5fff 462b 7148 afbf d7b6 b251 a23a debf
00000220: 4e6e 4988 0650 d0bf 8026 6820 80a5 debf
00000230: b177 c631 777c debf 1c6d b87f 3821 dcbf
00000240: 881b 3407 88cc cabf b890 82c1 313e d9bf
00000250: b0e7 6cd0 6612 b63f 837c 7d35 1dd4 ce3f
00000260: 22e3 45af 3d57 eabf 42eb 1502 388a d43f
00000270: 6ac7 b202 5b1d aebf 7e06 08a2 e4c0 eb3f
00000280: fd90 2efe 5d1f c33f 669b ba7d 240b 9dbf
00000290: 20fe 1b56 905a cc3f 971e 9afe 91e0 c43f
000002a0: e2ee 41a0 9aff e23f efb7 3940 2865 b6bf
000002b0: 93b5 f5d0 3bda d23f 1dc1 df8d f4c3 9dbf
000002c0: 1c97 cbf6 b2b6 cf3f 2a47 1e3c 05d1 b8bf
000002d0: 0867 382f 9cbd d93f 68d2 0627 5d3d ae3f
000002e0: a157 35b9 4941 d0bf 6262 4967 e5df d2bf
000002f0: 7682 be4d 03f9 ca3f 7743 de65 e71e d6bf
00000300: 5f91 14d0 4d19 d2bf 0c45 271e 39b4 c4bf
00000310: 04ff 33a5 d8e1 a8bf 4383 c7e0 866a e83f

b2 f8 [10, 1]
-0.04465677944486035 -0.42194521818237374 0.17951892189257568 -0.18146850574165785 -0.43478503068077656 0.17032959893696364 0.2033070781879781 0.3438036382422097
-0.1883781910222485 0.05125566579717078
00000000: f04d 85de 40dd a6bf 1400 3384 2601 dbbf
00000010: 6859 45dd 79fa c63f 580b b528 5c3a c7bf
00000020: 5c1d e497 84d3 dbbf 9cce 7c3c 5ccd c53f
00000030: 546c ee61 f705 ca3f 32c0 9ff9 e000 d63f
00000040: 742f dccc c61c c8bf a0c7 aac0 2e3e aa3f
